
nc: 20  # number of classes
scales:
  # [depth, width, max_channels]
  n: [0.33, 0.25, 1024]
  s: [0.33, 0.50, 1024]
  m: [0.67, 0.75, 768]
  l: [1.00, 1.00, 512]
  x: [1.00, 1.25, 512]

# YOLOv8.0n backbone
backbone:
  # [from, repeats, module, args]
  [ [ -1, 1, Conv, [ 64,6,2,2 ] ],  # 0-P1/2 [b, 64, 320, 320]
    [ -1, 6, CBSK, [ 64,True,1 ] ],
    [ -1, 1, Conv, [ 128,3,2 ] ],  # 2-P2/4 [b, 128, 160, 160]
    [ -1, 2, SwinStage, [ 32,32,2,8,4 ] ], # [outputChannel, blockDepth, numHeaders, windowSize]
    [ [ -1, 3 ], 1, Concat, [ 1 ] ],  # cat backbone P2
    [ -1, 3, CBSK, [ 128,True,1 ] ],
    [ -1, 1, Conv, [ 256,3,2 ] ],  # 6-P3/8 [b, 256, 80, 80]
    [ -1, 2, SwinStage, [ 64,64,2,8,4 ] ], # [outputChannel, blockDepth, numHeaders, windowSize]
    [ [ -1, 6 ], 1, Concat, [ 1 ] ],  # cat backbone P3
    [ -1, 6, CBSK, [ 256,True,1 ] ],
    [ -1, 1, Conv, [ 512, 3, 2 ] ],  # 10-P4/16 [b, 512, 40, 40]
    [ -1, 2, SwinStage, [ 128,128,2,8,4 ] ], # [outputChannel, blockDepth, numHeaders, windowSize]
    [ [ -1, 10 ], 1, Concat, [ 1 ] ],  # cat backbone P4
    [ -1, 6, CBSK, [ 512,True,1 ] ],
    [ -1, 1, Conv, [ 1024, 3, 2 ] ],  # 14-P5/32 [b, 1024, 20, 20]
    [ -1, 2, SwinStage, [ 256,256,2,8,4 ] ], # [outputChannel, blockDepth, numHeaders, windowSize]
    [ [ -1, 14 ], 1, Concat, [ 1 ] ],  # cat backbone P5
    [ -1, 3, CBSK, [ 1024,ture,1 ] ],
    [ -1, 1,MASPPM, [ 256 ] ],  # 18
  ]

# YOLOv8.0n head
head:
  - [-1, 1, nn.Upsample, [None, 2, 'nearest']]
  - [[-1, 13], 1, Concat, [1]]  # cat backbone P4
  - [-1, 3, CB, [512]]  # 21

  - [-1, 1, nn.Upsample, [None, 2, 'nearest']]
  - [[-1, 9], 1, Concat, [1]]  # cat backbone P3
  - [-1, 3, CB, [256,True]]  # 24

  - [-1, 1, nn.Upsample, [None, 2, 'nearest']]
  - [[-1, 5], 1, Concat, [1]]  # cat backbone P2
  - [-1, 3, CB, [128,True]]  # 27 (P2/4-min)

  - [ -1, 1, nn.Upsample, [ None, 2, 'nearest' ] ]
  - [ [-1,1], 1, Concat, [ 1 ] ]  # cat backbone P1
  - [ -1, 3, CB, [64,True]]  # 30 (P1/2-tin)

  - [ -1, 1, GSConv, [64, 3, 2] ]
  - [ [-1,27], 1, Concat, [ 1 ] ]  # cat backbone P2
  - [ -1, 3, CB, [128,True] ]  # 33(P2/4-min)

  - [-1, 1, GSConv, [128, 3, 2]]
  - [[-1, 24], 1, Concat, [1]]  # cat head P4
  - [-1, 3, CB, [256]]  # 36 (P3/8-medium)

  - [-1, 1, GSConv, [256, 3, 2]]
  - [[-1, 21], 1, Concat, [1]]  # cat head P4
  - [-1, 3, CB, [512]]  # 39 (P4/16-medium)

  - [-1, 1, GSConv, [512, 3, 2]]
  - [[-1, 18], 1, Concat, [1]]  # cat head P5
  - [-1, 3, CB, [1024]]  # 42 (P5/32-large)

  - [[30, 33, 36, 39, 42], 1, Detect, [nc]]  # Detect(P2, P3, P4, P5)
